…
    "    model.compile(optimizer = opt, loss = 'categorical_crossentropy', metrics = ['accuracy'])\n",
    "    return model"
   ]
  },
  {
   "cell_type": "code",
   "execution_count": 18,
   "metadata": {},
   "outputs": [
    {
     "name": "stdout",
     "output_type": "stream",
     "text": [
      "Model: \"sequential_2\"\n",
      "_________________________________________________________________\n",
      "Layer (type)                 Output Shape              Param #   \n",
      "=================================================================\n",
      "conv2d_7 (Conv2D)            (None, 28, 28, 32)        320       \n",
      "_________________________________________________________________\n",
      "conv2d_8 (Conv2D)            (None, 28, 28, 32)        9248      \n",
      "_________________________________________________________________\n",
      "max_pooling2d (MaxPooling2D) (None, 14, 14, 32)        0         \n",
      "_________________________________________________________________\n",
      "flatten_1 (Flatten)          (None, 6272)              0         \n",
      "_________________________________________________________________\n",
      "dense_3 (Dense)              (None, 128)               802944    \n",
      "_________________________________________________________________\n",
      "dense_4 (Dense)              (None, 47)                6063      \n",
      "=================================================================\n",
      "Total params: 818,575\n",
      "Trainable params: 818,575\n",
      "Non-trainable params: 0\n",
      "_________________________________________________________________\n"
     ]
    }
   ],
   "source": [
    "base_CNN_model = base_CNN()\n",
    "base_CNN_model.summary()"
   ]
  },
  {
   "cell_type": "code",
…
    "    model.compile(optimizer = adam, loss = 'categorical_crossentropy', metrics = ['accuracy'])\n",
    "    \n",
    "    return model"
   ]
  },
  {
   "cell_type": "code",
   "execution_count": 10,
   "metadata": {
    "scrolled": true
   },
   "outputs": [
    {
     "name": "stdout",
     "output_type": "stream",
     "text": [
      "Model: \"sequential\"\n",
      "_________________________________________________________________\n",
      "Layer (type)                 Output Shape              Param #   \n",
      "=================================================================\n",
      "conv2d (Conv2D)              (None, 26, 26, 32)        320       \n",
      "_________________________________________________________________\n",
      "leaky_re_lu (LeakyReLU)      (None, 26, 26, 32)        0         \n",
      "_________________________________________________________________\n",
      "batch_normalization (BatchNo (None, 26, 26, 32)        128       \n",
      "_________________________________________________________________\n",
      "conv2d_1 (Conv2D)            (None, 24, 24, 32)        9248      \n",
      "_________________________________________________________________\n",
      "leaky_re_lu_1 (LeakyReLU)    (None, 24, 24, 32)        0         \n",
      "_________________________________________________________________\n",
      "batch_normalization_1 (Batch (None, 24, 24, 32)        128       \n",
      "_________________________________________________________________\n",
      "conv2d_2 (Conv2D)            (None, 12, 12, 32)        25632     \n",
      "_________________________________________________________________\n",
      "leaky_re_lu_2 (LeakyReLU)    (None, 12, 12, 32)        0         \n",
      "_________________________________________________________________\n",
      "batch_normalization_2 (Batch (None, 12, 12, 32)        128       \n",
      "_________________________________________________________________\n",
      "dropout (Dropout)            (None, 12, 12, 32)        0         \n",
      "_________________________________________________________________\n",
      "conv2d_3 (Conv2D)            (None, 10, 10, 64)        18496     \n",
      "_________________________________________________________________\n",
      "leaky_re_lu_3 (LeakyReLU)    (None, 10, 10, 64)        0         \n",
      "_________________________________________________________________\n",
      "batch_normalization_3 (Batch (None, 10, 10, 64)        256       \n",
      "_________________________________________________________________\n",
      "conv2d_4 (Conv2D)            (None, 8, 8, 64)          36928     \n",
      "_________________________________________________________________\n",
      "leaky_re_lu_4 (LeakyReLU)    (None, 8, 8, 64)          0         \n",
      "_________________________________________________________________\n",
      "batch_normalization_4 (Batch (None, 8, 8, 64)          256       \n",
      "_________________________________________________________________\n",
      "conv2d_5 (Conv2D)            (None, 4, 4, 64)          102464    \n",
      "_________________________________________________________________\n",
      "leaky_re_lu_5 (LeakyReLU)    (None, 4, 4, 64)          0         \n",
      "_________________________________________________________________\n",
      "batch_normalization_5 (Batch (None, 4, 4, 64)          256       \n",
      "_________________________________________________________________\n",
      "dropout_1 (Dropout)          (None, 4, 4, 64)          0         \n",
      "_________________________________________________________________\n",
      "conv2d_6 (Conv2D)            (None, 1, 1, 128)         131200    \n",
      "_________________________________________________________________\n",
      "leaky_re_lu_6 (LeakyReLU)    (None, 1, 1, 128)         0         \n",
      "_________________________________________________________________\n",
      "batch_normalization_6 (Batch (None, 1, 1, 128)         512       \n",
      "_________________________________________________________________\n",
      "flatten (Flatten)            (None, 128)               0         \n",
      "_________________________________________________________________\n",
      "dropout_2 (Dropout)          (None, 128)               0         \n",
      "_________________________________________________________________\n",
      "dense (Dense)                (None, 47)                6063      \n",
      "=================================================================\n",
      "Total params: 332,015\n",
      "Trainable params: 331,183\n",
      "Non-trainable params: 832\n",
      "_________________________________________________________________\n"
     ]
    }
   ],
   "source": [
    "CNN2_model = conv_model()\n",
    "CNN2_model.summary()"
   ]
  },
  {
   "cell_type": "code",
…
